{"layers":[{"batch_input_shape":[0,1],"class_name":"InputLayer"},{"class_name":"Dense","units":10,"activation":"relu","weights":[[[… "class_name":"Dense","units":10,"activation":"relu","weights":[[[… 0]]},{"class_name":"Dense","units":1,"activation":"relu","weights":[[[0.448702067],[0.257851094],[0.236418769],[-0.736804783],[0.109332025],[-0.576511383],[0.107382312],[-0.323835224],[0.662434518],{"layers":[{"batch_input_shape":[0,1],"class_name":"InputLayer"},{"class_name":"Dense","units":10,"activation":"relu","weights":[[[… "class_name":"Dense","units":10,"activation":"relu","weights":[[[… "class_name":"Dense","units":1,"activation":"relu","weights":[[[0.634818077],[-0.189455345],[0.119923629],[-0.087333649],[-0.167983636],[0.371900201],[0.052903071],[0.712747216],[-0.449040294],[-0.029099289]],[0.047942039]]}]}