{"layers":[{"batch_input_shape":[0,60],"class_name":"InputLayer"},{"class_name":"Dense","units":10,"activation":"relu","weights":[[[… "class_name":"Dense","units":3,"activation":"softmax","weights":[[[… "layers":[{"batch_input_shape":[0,60],"class_name":"InputLayer"},{"class_name":"Dense","units":10,"activation":"relu","weights":[[[… "class_name":"Dense","units":3,"activation":"softmax","weights":[[[… 